data.pth (torch, 5418 bytes, 6 tensors)

l1.weight f4 [8, 54]
00000000: c0c8 b53e 479a 253f 80c1 6abe 0674 29be
00000010: c4c8 10bf b497 3c3f 9856 0cbe b84e 8dbe
00000020: 485b 043d 210b d3be 333a 58be 8904 083f
00000030: bb59 0b3e 8964 033f 1c81 d33e a469 803e
00000040: d8f3 47be f1d9 303f 8f24 a3be f9f7 cfbe
00000050: 2a1d 0b3f 0cf8 cfbe fbef cfbe 8dcb eabc
00000060: af1e 933d a204 6cbd 1697 13be de98 293f
00000070: 4bea 583d 7aaa 003f 1549 dd3e 5a0d 0b3f
00000080: fdcc 4fbe 3f8e cabe 9e76 083f edad fd3e
00000090: c6a5 a2bd a3a0 80bd d544 38be 33cb 01be
000000a0: 0890 c23e 2cb1 f4be 2921 e73e b1b5 903e
000000b0: 38bb a63e 7530 fe3e 7884 493f 93a7 da3e
000000c0: 5d19 3bbe cf80 81be 4025 ce3e 7c43 89be
000000d0: df47 0abd f0ed 403e 280c 0bbe ba54 6ebd
000000e0: f0de 86bd 41e8 85bd 0c1a 09bf 834a 41be
000000f0: 82c4 b1bd d62c 7ebe 50b0 ef3d a534 ddbd
00000100: 2f43 e7bd 9432 373f a3ee 8d3e 8b39 1a3f
00000110: 811c 8fbc 60a9 a63e 7170 febd 2fff 22bd
00000120: 2443 fe3e 3327 3dbe 4fd0 273d aa6c 4ebe
00000130: 96f2 50be 8b71 fc3e 353e b53e e93a 2abd
00000140: 5cda f43e 37da 9ebd f021 dd3e 016b a0bd
00000150: 81fc b7bd 1122 283f c22e 913d 2a3f fe3d
00000160: d732 05be 58f6 de3e 4ddc b13e d08e acbc
00000170: d874 f5bd 211a 10be 620a 543c f500 c33e
00000180: bcad b13e 2a94 cd3c 27aa 343f 87ef f3bd
00000190: 573c 5abe db97 f2bd 52df d53c df7e bc3e
000001a0: 6200 d93e 3fbb ae3e 6167 2ebe d914 1cbe
000001b0: 4b7d 2c3f 5e44 7cbd 6f0c f7be bb51 063f
000001c0: 6c22 9a3e 2dcd 3fbf e784 98bd 32ab 60be
000001d0: 2ad7 f7be 610e ccbe 85b1 f33e eb9e a7bd
000001e0: 31e2 973d 9afc 67be ef83 4bbe 4afb b6bd
000001f0: e2e8 1b3f 32b2 54bf 6586 093f 4c5c 473f
00000200: 483a af3e c488 233f 075e 373f a1f1 0b3f
00000210: e103 0ebe 542e 103f 81f8 203f 8b91 e9be
00000220: e705 a93e 7075 03bf b631 f8be 615a aebd
00000230: b704 023f c69d c7be dca5 c2be 0104 a8ba
00000240: 19c3 073e 59f2 2abf d3a4 33bd f017 90be
00000250: 52d7 efbe 2791 1c3f 760f 39be 6b55 02be
00000260: 3b5c f6bd 1430 2bbe 9f59 6c3f cc39 0b3f
00000270: 1fc7 bf3e c803 143f d139 cebd 91a6 ef3e
00000280: 87ec 41be 5b0e c43e bbbd e4bd 329a a73e
00000290: 6427 253f 759b c4be 8b08 a23e 2d15 1e3f
000002a0: 9bf5 ee3e 33e4 253f 8263 193f 9eb5 f43e
000002b0: c01e 52be f481 9c3e 1fed 273f 5d99 ce3e
000002c0: 15b7 8c3e 4afc cb3d c82a 8bbe cdc7 493f
000002d0: 13f5 753e c949 fabe fb3d 58be c34a fabe
000002e0: 6e45 fabe de02 debe bdc8 3b3e c964 c5be
000002f0: 9ab9 f03e 7a52 0a3e 3abe 153f 04b7 203e
00000300: 8758 d73e cff5 993e 1aae 07bd 95f7 f53e
00000310: 911b 993e f199 273e fc0c eb3e b92c 413f
00000320: 9dd1 d53e b9af 923e 80b0 083f 1639 c8bd
00000330: b9a6 b03e b78d 8d3e f503 153f 3536 0a3f
00000340: 9470 4fbf 598d 30be 9db4 e13e 718a b93e
00000350: e1f9 613b 3fcc 8a3e 6d81 973e 265e ea3e
00000360: 5589 26bd 14f8 ec3e c5d9 99be 6201 1c3e
00000370: 716e 24bc a67b 603f 5b45 ffba dac4 91be
00000380: 973b b5be d648 76be 99f9 173e c7a6 7dbd
00000390: 87e4 c4bd 2dfc 16be ee03 e23e 3eda d1bc
000003a0: b63d be3d 6f66 6e3f 14fa 9fbe ef51 db3c
000003b0: 9248 2c3c e46a 0dbd 1a0e ffbc 0433 5f3e
000003c0: 9206 63be 77b9 343e 236d 55be baeb d93e
000003d0: 10ed 75bc 4228 f53e 7879 403f a8ea 7f3d
000003e0: 7bcf 4f3d 28ca d2be 09fc f83e dd75 5ebe
000003f0: 361f 25be 87c4 f6be 1bc1 67be 3e3b 08be
0.35504723 0.64688534 -0.22925377 -0.16548166 -0.56556344 0.7366898 -0.13704908 -0.2759912
0.032313615 -0.41219428 -0.21115951 0.5313192 0.13608448 0.5132528 0.4130944 0.25080597
-0.19526613 0.6908255 -0.3186383 -0.40618876 0.54341376 -0.40618932 -0.40612778 -0.028661514
0.07183587 -0.057621606 -0.14413103 0.6624888 0.052957814 0.50260127 0.4321982 0.5431725
-0.2029304 -0.3956165 0.53305995 0.49546757 -0.07941775 -0.06280639 -0.17995007 -0.1267517
0.38000512 -0.4779142 0.45142487 0.2826362 0.32564712 0.49646345 0.78717756 0.42705974
-0.18271394 -0.25293586 0.40262794 -0.268093 -0.033759948 0.18840766 -0.13578856 -0.05818627
-0.06585491 -0.065384395 -0.5355537 -0.1887608 -0.08680059 -0.24821791 0.11703551 -0.10801057
-0.11292111 0.7156155 0.27721128 0.60244054 -0.017469646 0.32551098 -0.1242379 -0.039794143
0.496606 -0.18471985 0.040970143 -0.2015864 -0.20405039 0.49305376 0.35399023 -0.041560087
0.47822845 -0.07756465 0.43189955 -0.078329094 -0.08983708 0.6567698 0.070889965 0.12414391
-0.13007675 0.4354732 0.3473839 -0.021064192 -0.11985177 -0.14072467 0.012941929 0.38086668
0.3470286 0.025095064 0.7057213 -0.119109206 -0.2131208 -0.118453704 0.026107464 0.36815545
0.42383105 0.34127232 -0.17031623 -0.15242328 0.6737868 -0.061588638 -0.48251674 0.5246846
0.30104387 -0.7492245 -0.07447224 -0.21940306 -0.48406345 -0.3985472 0.47596374 -0.08184608
0.074161895 -0.22654954 -0.19874547 -0.08934648 0.60902226 -0.83084404 0.53720695 0.7787521
0.34224153 0.6388056 0.7162785 0.5466557 -0.13868667 0.5632069 0.62879187 -0.45618853
0.33012316 -0.5135107 -0.48475426 -0.08513332 0.50788444 -0.3898756 -0.38017166 -0.0012818576
0.13258018 -0.66776043 -0.04385836 -0.28143263 -0.46843964 0.61158985 -0.18072304 -0.12727897
-0.1202931 -0.16717559 0.9232425 0.54385066 0.37456605 0.5781827 -0.10069621 0.46806768
-0.18937884 0.38292202 -0.11169001 0.3273483 0.6451323 -0.38399854 0.31647143 0.6175106
0.46671757 0.6480133 0.5991746 0.47794813 -0.20519543 0.30567896 0.65596193 0.40351382
0.2748343 0.0996023 -0.27181077 0.78820497 0.2401927 -0.4888442 -0.21117394 -0.48885164
-0.48881096 -0.43361562 0.18338294 -0.38553455 0.47016603 0.13508025 0.5849339 0.15694815
0.42059729 0.3007035 -0.03312502 0.48040453 0.29903844 0.16367318 0.45908344 0.75458866
0.41761485 0.2864969 0.5339432 -0.09776513 0.345022 0.27647182 0.5820916 0.53988963
-0.81031156 -0.1724142 0.4408311 0.36238435 0.0034481215 0.27108952 0.29590932 0.45774955
-0.040658314 0.4628302 -0.30048957 0.15234903 -0.010036097 0.8768867 -0.0019475626 -0.28470498
-0.35397026 -0.24051222 0.14841308 -0.06192663 -0.09613901 -0.14744635 0.44143623 -0.025616761
0.09289114 0.9312505 -0.31245482 0.026772467 0.010515349 -0.034525767 -0.031134654 0.21796805
-0.22170475 0.17648874 -0.20842414 0.42562658 -0.015010133 0.47882277 0.75185347 0.062479645
0.05073498 -0.41169858 0.48629788 -0.21724649 -0.16125187 -0.48196813 -0.22632258 -0.13303849

l1.bias f4 [8]
00000000: 4ff5 cf3e 131e 5a3e adb4 663f 6954 fa3e
00000010: 7c3c 503f 7a8c c7bd 3e4b c73e d443 533f
0.40616843 0.21300535 0.9011944 0.48892525 0.8134229 -0.09743591 0.38924593 0.8252537

l2.weight f4 [8, 8]
00000000: a333 5a3f 9297 34bf cf7e 8c3f 1813 2cbf
00000010: ac99 8c3f 3857 14bd 077a 44be 6402 813f
00000020: 7bcb 483e af4c 743e ecb7 113e 0ed7 30be
00000030: 3a9a 66be c6bd e2bd 252f b1be db97 66be
00000040: afb0 f7be e775 cb3e b24e 573f ac42 d5be
00000050: d318 793f 289b 3dbd f190 7dbf d6fc 9a3f
00000060: 5ec0 533f 9769 77bf ccc4 a03e 10f7 ddbe
00000070: e4aa 103f 7687 53be 2326 803f c3b1 61be
00000080: bdce 7e3f b2e8 723f bb30 273f 4dd0 a53d
00000090: 6c5f 80bc 1f00 a63e ca61 733f d204 43bf
000000a0: eae8 3e3f cb9a 493f 6846 313f 2de3 173f
000000b0: 78fb 7bbe 409a fa3d f6df 723f 3a71 83bf
000000c0: 4bc0 83bf c215 febd cf4d a13f f195 363f
000000d0: 8b4e 2cbf c621 483e a7a9 2c3e 3e68 4a3f
000000e0: 5342 7c3f 6a3f 73bc 7df3 c5bf 2583 b73f
000000f0: 1542 703f 5a4e 073e 7abc 8e3e 8beb 893f
0.8523504 -0.7054378 1.0976199 -0.67216635 1.0984397 -0.03621599 -0.19187175 1.0078855
0.19608872 0.23857377 0.14230317 -0.17269537 -0.2251977 -0.11071353 -0.3460628 -0.22518866
-0.48376986 0.3973839 0.84104455 -0.4165243 0.97303504 -0.046290547 -0.9904929 1.210841
0.82715404 -0.9664549 0.31400144 -0.43352556 0.5651076 -0.20657143 1.0011638 -0.22040467
0.9953421 0.94886315 0.6530873 0.08096371 -0.0156705 0.32421967 0.9507109 -0.7617923
0.7457415 0.7875182 0.69248056 0.5933102 -0.24607646 0.12236452 0.9487299 -1.0268929
-1.0293058 -0.12406494 1.260187 0.7132254 -0.6730735 0.19544134 0.16861592 0.7906531
0.985387 -0.014846662 -1.5464932 1.4336897 0.93850833 0.13213482 0.2787817 1.0775007

l2.bias f4 [8]
00000000: aa78 013e a50c 88be 20bd 0d3e ba51 a23c
00000010: a777 5cbd bc96 e83e 86ad 593f abb3 b03e
0.12643686 -0.26572147 0.13841677 0.01981436 -0.053825047 0.454275 0.850304 0.34512076

l3.weight f4 [7, 8]
00000000: 519f 8cbf 0fe0 adbd c762 33bf 0d94 9ebe
00000010: 95ba 973e d459 133f 2732 67bf d7ea a2be
00000020: 7239 95bc faf8 dc3d df0c c0bf 8aab 853e
00000030: b1b0 fcbe 23bb 26be 70da 92bf 8eaf c03e
00000040: 082f cf3e c628 2abd e43d 2a3e 5433 43bf
00000050: 4cd1 cfbf 8ad4 4abf 99eb 1fbf 8f4e f73e
00000060: 035f 433f 72dc 61be fbf1 333f d088 92bf
00000070: ae12 a5bf e4db 66bf dfe9 1a3f 4af8 91bf
00000080: 1b1a 1abe 2d34 c13d 9573 e4be 4009 ccbf
00000090: 6dd1 98be 0ce7 013f 38ee 3d3f c632 a6bf
000000a0: 2407 b2bf d86c bcbe 8e34 b4bf bc41 74bf
000000b0: 3114 86bf 1854 89be 3d46 303f 4af2 273f
000000c0: 9eb1 7b3e 1a44 9b3d 98f6 8fbf 1f3b 413f
000000d0: ff0c 81bd f2ff 2b3e 3638 4ebe 99a0 9abf
-1.098612 -0.084900014 -0.700726 -0.3097233 0.29634538 0.5755894 -0.903109 -0.31819794
-0.018215869 0.10789676 -1.5003928 0.26107436 -0.49353555 -0.16282324 -1.1472912 0.37633938
0.4046557 -0.04154279 0.16625172 -0.76250196 -1.6235747 -0.7923056 -0.6246887 0.48302123
0.7631685 -0.2205675 0.7029111 -1.1448002 -1.2896326 -0.90179276 0.6051311 -1.1403897
-0.15049021 0.0943378 -0.44619432 -1.5940323 -0.2984728 0.50743175 0.7419162 -1.2984245
-1.3908429 -0.3680179 -1.4078538 -0.954128 -1.0474912 -0.2682197 0.68857175 0.6560408
0.24579474 0.07581349 -1.124713 0.75480837 -0.06301307 0.16796854 -0.2013863 -1.208026

l3.bias f4 [7]
00000000: a77c 43be 765a 90be 4c5d 50bd a675 3ebe
00000010: 5028 8e3d 7a87 e33e ac63 423e
-0.1909052 -0.28194016 -0.050870225 -0.18599567 0.06941283 0.44439298 0.18983334
